results/checkpoints/GraphConv_2_h32_youngs.pt (torch, 46338 bytes, 19 tensors)

phi.convs.0.lin_rel.weight f4 [32, 19]
00000000: cb3e 7e3e 7f3d aa3e fc01 453e a924 a03c
00000010: 9b71 d4bd b047 91be 5de1 a8be 9b98 bd3e
00000020: 8c33 81bd 078b 0ebe 2a93 293e e059 15be
00000030: 2366 afbd e143 4f3d f5b7 e83d 525b 92be
00000040: e41f 69be 371a 403d fa11 1a3e 3d7f dd3d
00000050: 32a4 2c3d 79f4 1fbe a4b6 53bc 194c d0bc
00000060: cd90 393d 01dc 9bbd e2a3 84be dffd e23d
00000070: d7cf 97be 8760 b1be 3f29 813e aa8a 5d3e
00000080: 9da1 8a3e e24a 8b3e ba97 2a3e f83b 793e
00000090: 8431 3dbe 6d74 c43c 225c 78bd 2dfa 57be
000000a0: d6fa 123b d550 d73e cf2c 603e d64d 28be
000000b0: 38c2 fa3d 7e70 eb3e 3826 843e 7b3a 913e
000000c0: 293c 353e a7d6 733e 597a 0bbe e416 50be
000000d0: 2f5b 84be 2303 4cbd 1388 6d3b a178 dcbd
000000e0: b135 50be 4dea dd3c 7f95 9cbd 80ab dcba
000000f0: 5c45 6dbb 1e0b 1e3e eb3e 403e 65e7 09be
00000100: 8422 4abd 1ac8 823d 1f2d 53be b3a7 cb3e
00000110: 12a1 423e 678e 8d3d 85a3 8dbe 4dc7 32bd
00000120: 4bde 9cbd aa14 6fbe d6e3 ff3d 2ce5 823c
00000130: ac14 d0bd edf8 b0bc d5a9 0dbe 707d 9fbd
00000140: 20b1 9ebc c19e 303e f249 bebd b421 a03d
00000150: 6dd5 8d3e 7c4f 0e3f f63f 3a3e d8df 11be
00000160: b4b7 5dbe ff51 02bc a689 b9bd c036 2c3e
00000170: e879 fe3c 232f c5bd 21a2 b6be e500 32bb
00000180: 8d65 abbd 614b 313e b320 913e c502 573e
00000190: 041c fdbd 2d7c cabc f094 9e3d dd25 eabd
000001a0: d36b 1c3e 7445 313e 8c3d c9bc dfb3 703d
000001b0: 6041 5b3d 1ca1 16be 8074 3cbe 13d5 98be
000001c0: e0ed 47be 6f1d fd3b da41 83be 6fb8 29be
000001d0: d617 2a3d f581 8c3e 4803 c73d 0f9f f73d
000001e0: 28f0 8ebe 7ba3 34be d6ee d9bd c760 33be
000001f0: 24d5 4f3e 6816 60be a772 ebbd 05e7 533e
00000200: 20aa aa3d 13fc b4bd b932 d5bc 235f 65be
00000210: 105f ed3d 8e96 2c3d b702 94bc 422c 3fbe
00000220: 0711 f63c ba6e 643c a112 483e a95e 9b3e
00000230: 8381 8d3d fe41 473c 09c0 06be 1cdf 7f3e
00000240: 37b6 523e 9491 3c3d b22f 82be a15c 613e
00000250: a3bc eaba 8741 373d 4355 f53c 06d0 143e
00000260: 61e3 1c3e dd3a a1be 0414 583e 4bc6 56be
00000270: 5f6a d5bd 6d55 34bd ee11 d93d 6b5d 18be
00000280: 5529 c53d df42 093d 98fc 553d ca27 92be
00000290: 23da 613e 1790 c33d c3a6 ca3d 8aac 7f3c
000002a0: 9a4d 1a3d f60c c8bd de16 d33d ebad b93e
000002b0: 1e8f c83e 4505 bbbd a137 debe 1390 1b3e
000002c0: ba79 f13e 20e9 a43e f6e4 93be eba3 11be
000002d0: cc1a 423e 8bd2 8c3e f2c5 1fbc 85ad 693e
000002e0: 1647 8bbe 6df9 3b3e 7df4 9bbd 4276 233d
000002f0: 9917 183e 262b 103e 0e18 183e c6e9 f83e
00000300: 1b12 793d ad16 e53d 4281 e7bd d092 ab3e
00000310: 6f42 843e 302a b2be 90a5 9abe c801 88be
00000320: 2cd8 dd3e 3712 183e c06d 8d3e 07c1 81be
00000330: 4b33 3fbe c0a1 81bd 038b 69be 3bc1 39be
00000340: 04f1 4ebe 3bb9 063e df1f bdbe c781 96bc
00000350: 1035 ff3c 8684 303e d24d 0c3e ea5a 9c3e
00000360: 4fc1 39be 2c36 51be 93e7 93be a9cc 94be
00000370: 9e41 98bb 2e97 27be 92f8 4f3e ec99 ab3e
00000380: b996 323e 5a82 d6bd dac6 5dbe aac6 983e
00000390: 6d77 053d 43dd dcbd 0d93 69be 33cd 2b3e
000003a0: 4636 cebc c53c 363e 5faa 7e3e 4a07 ed3d
000003b0: 72ab 7c3d 231a 00be 0382 01be 4e48 36be
000003c0: 87bd 9bbe 0954 53be a7b1 83be 66a0 433e
000003d0: 0c6a f93d ed4c 293e c6d8 80be 1030 3b3e
000003e0: a418 30be 9225 2b3e ff44 7a3e 470c 8c3e
000003f0: 9830 a73e 6a86 f83b b74a f4bd 7da4 513e
0.24828641 0.33250043 0.19239038 0.01954873 -0.10373231 -0.28375006 -0.3298444 0.3703049
-0.0630866 -0.13920222 0.16560045 -0.14585066 -0.08564403 0.050601844 0.11363212 -0.28585297
-0.22766072 0.0469 0.1504592 0.108152844 0.042148776 -0.15620603 -0.012921963 -0.025426911
0.04530411 -0.07610322 -0.25906283 0.11083578 -0.29650757 -0.34643957 0.2522678 0.21634927
0.27076426 0.2720557 0.16659442 0.24339283 -0.1847592 0.023981297 -0.06063474 -0.21091528
0.0022427342 0.42053857 0.21892093 -0.16435942 0.122440755 0.45984262 0.2581041 0.2836493
0.1769873 0.23812352 -0.1362089 -0.20321232 -0.25850818 -0.04980768 0.0036244437 -0.10765196
-0.20332982 0.027089262 -0.076457016 -0.0016835779 -0.0036204671 0.15433928 0.18774001 -0.13467176
-0.049349323 0.063858226 -0.20622681 0.39776382 0.19006756 0.06911927 -0.27663818 -0.0436471
-0.076595865 -0.23347726 0.12494628 0.015978418 -0.10160193 -0.021603072 -0.13834317 -0.07787597
-0.01937157 0.1724806 -0.09291448 0.07818928 0.27701893 0.55590034 0.18188462 -0.14245546
-0.21652108 -0.00795412 -0.090594575 0.1681776 0.031063989 -0.09628131 -0.3567057 -0.0027161178
-0.08368979 0.17313911 0.2834526 0.2099715 -0.12358859 -0.024717415 0.07743251 -0.11433003
0.15275507 0.1731165 -0.02456548 0.05876529 0.053529143 -0.14709896 -0.18403816 -0.29850063
-0.19524336 0.007724456 -0.25636178 -0.16574262 0.041526638 0.274429 0.09717423 0.12090885
-0.279176 -0.17640488 -0.106412575 -0.17517386 0.2029615 -0.21883547 -0.114964776 0.20693596
0.0833323 -0.08837142 -0.026025163 -0.22399573 0.11590397 0.042135768 -0.0180677 -0.18669227
0.030037416 0.013942415 0.19538356 0.30345657 0.06909468 0.01216173 -0.13159193 0.24987453
0.20577322 0.04603727 -0.25427014 0.22007991 -0.0017909001 0.044740226 0.029947883 0.1453248
0.15321113 -0.31490222 0.21101385 -0.2097408 -0.10420679 -0.04402678 0.10599123 -0.14879386
0.09627024 0.03351104 0.052242845 -0.28545982 0.22055869 0.09548967 0.098950885 0.015605101
0.037671663 -0.09768097 0.10307096 0.362655 0.3917169 -0.091318645 -0.43401816 0.15191679
0.47163182 0.3220911 -0.2888562 -0.14222686 0.18955535 0.27504382 -0.009751784 0.22820099
-0.27202672 0.18356867 -0.07614992 0.0399077 0.14852752 0.1407896 0.14852926 0.48615855
0.060808282 0.11185966 -0.11303951 0.33510447 0.25831935 -0.34797812 -0.3020444 -0.2656386
0.4332899 0.14850698 0.27622795 -0.2534258 -0.1867191 -0.063296795 -0.22806935 -0.18140118
-0.20209128 0.13156597 -0.36938378 -0.01837243 0.031153232 0.17238054 0.13701561 0.30538112
-0.18140148 -0.20430821 -0.28887615 -0.29062393 -0.004646494 -0.16366264 0.20309666 0.3351587
0.17440309 -0.10474081 -0.21657887 0.2983907 0.032584596 -0.1078439 -0.22810002 0.16777496
-0.025172364 0.17796619 0.24869679 0.11573656 0.06168694 -0.1250997 -0.12647252 -0.1780102
-0.30418035 -0.20637526 -0.25721475 0.19104156 0.1217843 0.16533251 -0.25165385 0.18280053
-0.171969 0.1671355 0.24440382 0.27353117 0.32654262 0.007584383 -0.11928313 0.20472904

phi.convs.0.lin_rel.bias f4 [32]
00000000: df17 1dbd fff4 a23c 150a 723e d49e e0bd
00000010: b463 58be 6543 9ebd faeb 033e 2f8b 393e
00000020: 8bd6 51bb f622 a5bd dfe7 283d 47a3 61bd
00000030: 3bde 543d 04ae 0e3e 9aeb b93d 202b 20bd
00000040: a8b0 673d b0b5 cf3d 6791 ddbd 4cba 003e
00000050: b620 10bd 56ef 1a3e 6ed2 cabd dd98 b23d
00000060: 2192 6c3e b896 dabc 3f14 3cbe 5426 ecbd
00000070: 0185 513e bf1d 09bd c8ea 253e c1e6 4a3d
-0.038352843 0.019892214 0.23636658 -0.10967794 -0.21131784 -0.07727698 0.12882987 0.181195
-0.0032018747 -0.08063309 0.041236755 -0.055087354 0.051969748 0.13933569 0.090781406 -0.039103627
0.056564957 0.10142076 -0.10818749 0.12571067 -0.035187446 0.15130362 -0.099034175 0.087205626
0.23102619 -0.026683196 -0.18367098 -0.11530748 0.20460893 -0.033475634 0.16202843 0.04953647

phi.convs.0.lin_root.weight f4 [32, 19]
00000000: 5d76 f53d 8a45 2abe 6073 3dbe 35fc 1cbe
00000010: 7f49 5e3e 3229 4a3e 59d8 fcbc 2df9 4f3e
00000020: f280 283d 3d25 fdbd a571 833e 7b63 0c3e
00000030: cf7c 74bb d717 5abe 5df4 0e3d c512 9ebd
00000040: 58fc 0b3e dc3a 753e 3c9f e13d 5775 9f3d
00000050: 059f d23d e56f 953d 22ab 3fbe c74e cd3d
00000060: cda1 5a3e 89ba 30be e2dd 7b3d 291d fcbd
00000070: 0587 94bd 77a2 5abe ab37 6b3e fd99 27be
00000080: 8369 073e d6ab be3d 5cde 473d 94e5 f73d
00000090: 31ce b43c 77c6 2a3e 912c 2c3e 9715 b83b
000000a0: e895 c13d ef38 f03d 956c 55be a708 51be
000000b0: ad64 b43d 0ab2 6e3e e345 17bc 7760 ef3d
000000c0: 4335 313e 5444 0e3e e2b6 4dbe f74a 55be
000000d0: 9240 cfbd 3513 adbd 0ff8 d0bd fcb9 c9bd
000000e0: 5d1f 78be 4dac 96bd 3941 2b3d 703c 42bc
000000f0: 83bb 93bd 2b20 133d 3e2f 7e3d 2029 65bc
00000100: 0fd1 323e ec65 fc3d 59da 123c e288 2abe
00000110: aaf4 97bd 39f1 0d3d 9f1f 9b3c 4807 f63d
00000120: 0e18 0abe fe23 49be 55d8 433d a8d1 5d3e
00000130: d92c 683e e42b 4abe 3acd bbbd ff4e dc3c
00000140: 1c5a 19be 8136 0dbe ed0c 99bd 4fd1 093e
00000150: cb18 a83d a643 68be cb8a 67bd 056a 473e
00000160: 13cf 10be 7048 2dbe aacf 27be af60 5bbe
00000170: c969 15bd f396 debc 7710 b93d 4545 ed3d
00000180: c4af 7ebb c786 bb3d 4d64 e73d c9f1 353e
00000190: 132b 15be cd9e 98be 16b0 9ebe b77b c73d
000001a0: df7a 503e dcfc f93d e368 f1bc 9f29 5a3c
000001b0: 4d59 4dbe 31a5 583c 6792 173e 87d1 e1bd
000001c0: ddce 37be 490e b1bd fc9c 5ebe 57b1 473d
000001d0: bb7b 683e 9785 cc3d b13a 59be 082f 95bd
000001e0: 89d8 1abe d3b0 983c ffac d2bd 066a b03d
000001f0: a448 16bc d5a0 0ebe 33c4 04be 7cbc 6bbe
00000200: e648 81ba 3bc4 97be f27b 61bd 45de 3dbe
00000210: cf41 62be 9e1a 863e 0b9f e13c c919 02bb
00000220: 87f2 953e bd00 d13d ed0b 09be 2df2 47be
00000230: ad25 4c3e c945 22be 26d1 823d 5a26 74ba
00000240: 39fd 70bd e801 793d 4ffe dd3d 118d cebc
00000250: 769c 16be 7206 83bc e31b 613e 1029 a23d
00000260: e880 24bd 2879 45be 6f4c ce3e 46b9 993c
00000270: 6647 553e 2430 c2bd 05c2 433e 0f4a f53d
00000280: a58f 0f3e 419d 833e 478b 483e 96cf 2fbe
00000290: 544e 693c 89b4 52be da61 85bd 30f5 353d
000002a0: a737 91be e9ea 52be 1de1 97be 6812 5f3e
000002b0: 2af4 a63e 2098 183e 199c 26be d7c5 c9be
000002c0: c5d6 02bd 57b2 713e 0462 c0bd 601e 243e
000002d0: c29f 213e 6329 efbd b319 3bbe e37b 8c3e
000002e0: e097 403e 66e1 25be 8c62 89be 3bdb 3ebb
000002f0: d220 4cbe 27af 66be 0848 34bd e4c7 7b3e
00000300: fe41 df3b 7094 aebc c225 13be 7ddd 2a3e
00000310: 73c6 4b3e c963 063f 9a38 debd d815 ee3d
00000320: e5e7 3e3e 3305 3fbe 4899 623e 0fd7 f03d
00000330: fdb9 1d3e 05b0 31bb 6b1f e2bd 31b4 72be
00000340: 66fa a23d bbf1 8b3e a8cc 21bd c53a cfbc
00000350: 99c8 8e3c d314 853e f271 63be e2b3 80be
00000360: 4631 98be cd77 843d cf47 97be 71ad a43e
00000370: face 053e 6af9 e13d 7e52 4d3e 194b 943e
00000380: 87b0 bc3b 2054 acbd dc6b 9a3c 9ac4 433e
00000390: 89dc 3c3e 46da 07be fce5 61be bd58 943e
000003a0: a39a 90be ecf8 2c3e b227 893d 0eac be3e
000003b0: ff64 df3d dd42 123e ae09 f83c 88d2 cb3d
000003c0: 88ae 6a3e 1627 36be 2926 ccbd 82de ddbd
000003d0: 3a58 3e3d d5a5 8f3d 9acf d43d a2ca 3b3e
000003e0: aa50 07bc e047 443e 3536 39be f28d c23d
000003f0: a46a abbd d9a8 a7bb 3adb 60be c9c4 cdbe
0.11985467 -0.1662809 -0.18501043 -0.15330584 0.21707724 0.19742277 -0.030864881 0.20309897
0.041138597 -0.12360618 0.2567264 0.13709824 -0.0037305837 -0.21298157 0.03490101 -0.07718424
0.1367048 0.23948234 0.110167 0.07786053 0.10284237 0.07296733 -0.18717626 0.10024791
0.21350785 -0.17258658 0.0614909 -0.12310249 -0.072523154 -0.21351038 0.22970454 -0.16367336
0.13223843 0.09310119 0.048796043 0.121043354 0.022070976 0.16677271 0.16813876 0.005617808
0.094524205 0.11729609 -0.20842202 -0.20413457 0.08808265 0.23310104 -0.009232971 0.11688321
0.17305474 0.13893253 -0.20089296 -0.20829378 -0.10119738 -0.08450929 -0.102035634 -0.09849927
-0.24230714 -0.073570825 0.041810248 -0.01185523 -0.072134994 0.03591935 0.062056772 -0.013986856
0.17462562 0.123241276 0.008963191 -0.16653779 -0.07419713 0.034653876 0.018935977 0.120131075
-0.13485739 -0.19642636 0.047813732 0.21662009 0.22673358 -0.19743305 -0.09170003 0.026893137
-0.1497578 -0.13790323 -0.074731685 0.13458751 0.08207854 -0.22682056 -0.056528848 0.19474037
-0.14141493 -0.16922164 -0.16387811 -0.214236 -0.036477838 -0.027171588 0.090363435 0.11585478
-0.0038862089 0.09156566 0.11298428 0.17768015 -0.14567213 -0.29808655 -0.30993718 0.097403936
0.20359372 0.12206432 -0.02946896 0.013315587 -0.20053597 0.013222978 0.14801942 -0.11026292
-0.17950006 -0.08645303 -0.21739572 0.04875311 0.2270345 0.09986418 -0.21213795 -0.07284361
-0.15121664 0.018639004 -0.10286903 0.08613972 -0.009172592 -0.1392854 -0.12965469 -0.2302112
-0.0009863644 -0.296419 -0.055049844 -0.1854182 -0.22095416 0.26192182 0.027541658 -0.0019851795
0.29286596 0.10205219 -0.13383456 -0.19525976 0.19936247 -0.15846933 0.06387548 -0.0009313576
-0.058835242 0.060792834 0.10839521 -0.02521375 -0.14708123 -0.015994284 0.21983294 0.07917988
-0.040161997 -0.19284499 0.4029269 0.018765103 0.20828018 -0.09481838 0.19116981 0.11977016
0.1401964 0.25705913 0.1958438 -0.17169032 0.014239866 -0.20576681 -0.06512804 0.044423282
-0.28362772 -0.20597424 -0.29663935 0.21784365 0.32608157 0.14901781 -0.16270484 -0.39408752
-0.0319431 0.23603188 -0.09393695 0.16027212 0.15783599 -0.11677816 -0.18271522 0.27438268
0.18807936 -0.16199264 -0.26832998 -0.002912237 -0.19934395 -0.22527753 -0.044014007 0.24587971
0.006813287 -0.021311015 -0.14369872 0.16686054 0.19899921 0.5249601 -0.1085064 0.1162526
0.18643148 -0.18654327 0.22128785 0.11759769 0.1540298 -0.0027112972 -0.11041149 -0.2370155
0.07957916 0.27332863 -0.039501816 -0.025296578 0.017429637 0.2599245 -0.22211435 -0.2513724
-0.29725093 0.06468163 -0.29546973 0.32163575 0.13067237 0.110339 0.20051 0.28963545
0.0057583484 -0.08414483 0.01885026 0.19117966 0.18443502 -0.13266858 -0.22060388 0.28973952
-0.28242978 0.16891831 0.066970244 0.37240642 0.10907935 0.14283319 0.030278053 0.09952265
0.22918141 -0.17788348 -0.09968216 -0.108334556 0.04647086 0.07014052 0.10391159 0.18339017
-0.008258978 0.19168043 -0.18087085 0.0949973 -0.083699495 -0.0051165638 -0.21958628 -0.40189198

phi.convs.1.lin_rel.weight f4 [32, 32]
00000000: 652b 253e 7aaa 203d b283 653d d2c3 293e
00000010: 8465 393e 42f0 03bd 362e ff3d 4261 a0bb
00000020: 3044 c8bd a0b8 07bd cfd5 0f3e 828d 283e
00000030: c513 a43d 9c9d 093e ba83 fb3b 51c3 4abe
00000040: 3b20 c63d 3b2d 823d 3dbb 4d3d 2d70 c5bd
00000050: e3b9 003e 047d 5bba 2980 ddbc e29b 6bbd
00000060: 1ef2 55be 7439 8dbb 8e86 e03d bfe8 473c
00000070: eacc 703d 0f9b 7dbd de44 02bc 99c2 823e
00000080: fe24 ccbc ed7d 893e b6b2 b8bd 8dad db3c
00000090: 0a6c ab3e 6570 19bd c57c 4ebd 615c eb3d
000000a0: a8e6 d4bc 9aa6 dc3d 6c9f 4d3e ccf5 613e
000000b0: 8bf7 4ebd 4166 703d 7430 1cbe 1df2 a2bb
000000c0: cd56 6dbd 570a 28bd b74b f2bd 72ff 763e
000000d0: 00f2 313e f3c5 cc3d dd20 1abd 96d5 60bc
000000e0: 2e70 1abe d2ff fdbd 7062 503e f2b6 13be
000000f0: 0c9c db3d 8f20 a6bc f178 893d f5a6 703e
00000100: 0163 a93d 30eb 0d3e 2006 06be c94d e33d
00000110: 820b 883e 6b08 59bd ae3c 65be 9b8b e33d
00000120: f9d7 86be 97a6 78bd bbe7 2abd eeb6 c83d
00000130: 6aeb 00be 2500 05bd ec84 71be a1a0 fe3d
00000140: 0f6a b2bd f8f8 a7bd d406 5ebe b88e 1d3e
00000150: 71fe 903d 0b33 083e f18e 213c d923 debd
00000160: 6a64 ae3d 7fbe 58be 5c48 5abe 0324 babd
00000170: e5ff 1bbc bb61 a23d 19f0 013e 30ce 5d3d
00000180: 817f 10bc c9a4 713e 9816 8c3d fa0a 6d3d
00000190: dd4f 0dbb e3e1 453e a505 0c3e baa7 bd3d
000001a0: 7433 5e3e 0d18 823e d581 23bd a8b6 db3c
000001b0: ad9f 6e3e ba03 003e ab90 5c3e dfda eb3d
000001c0: ead8 803e 4dc1 b6bd 5b9e b43e 1abc 343e
000001d0: 412a 5d3e eb68 383d 3825 633e a928 203e
000001e0: 61dd 233e 51f4 4e3e 53e4 8bbd d0af e83d
000001f0: f850 a03d ee1b 603e 0492 433e d68d e13d
00000200: d4f3 b5bd 93de 0a3e 5d9c ffbd 01b9 1bbe
00000210: 643c 9cbc 07ef 833d a0b6 933c 0cc4 dbbc
00000220: 1165 6c3e de09 45be bfb4 633c f44f 073e
00000230: d612 34be 2b8e 123d 7ce6 073e f665 9e3d
00000240: b8b6 66bd a023 61bd 3815 e1bc 3d1e 083d
00000250: 4bce fb3d 3acc 9abc 0599 e73d b7b9 213e
00000260: 0349 413e a110 f8bd 8a41 883d b8f9 403d
00000270: c441 38bd 9103 d5bd 968f debc 7ad2 b8bd
00000280: aa20 eebc bf54 4f3d 45f4 ad3e 6bef 893d
00000290: 6175 453e f2b4 3e3d 70d8 0e3d 8100 21bd
000002a0: 8ac1 8c3e a588 893d d125 593e 1bb4 953e
000002b0: 1d2d 263b 45a8 873e a566 493e e55f 263e
000002c0: 3b7b 823e 636b e73c da8c ed3e 84b0 183e
000002d0: 5586 27bd 3562 203c f090 1a3d a048 993c
000002e0: 574c 353e 73d8 af3e 13b0 933d 81ff 8d3d
000002f0: 560e 923e 7870 e73c 813d fd3d 085e c4bc
00000300: eeb7 99bd acb2 563e d438 7c3e 4055 843d
00000310: a0de a23c 9787 bc3d ffdc 303e 5a85 2cbd
00000320: 75f9 2b3e 9b80 c13d 1ff7 3d3e 023f 61bd
00000330: 1f6c 543e 9a5b b7bd 9a9f c0bd b21f 39bc
00000340: f427 d0bc fd44 313b d15f 7d3e 50ba 0f3e
00000350: c286 7fbd 440d 313e 6744 56be 4d42 613e
00000360: d2e4 39bd a183 2b3e 3cdc a13d 28d8 c13d
00000370: f374 383e 4995 663d b306 17be c51d c23d
00000380: a72f 313e fcfe 3b3e eb50 913e 0f83 803d
00000390: ef1d 753e 09e2 c23d 42a1 3e3c b200 913e
000003a0: 171a 7d3e 6a16 2c3e 2730 4d3e 2b34 b63d
000003b0: f2db eb3d 27a4 543e 12bb 033e fbac 433e
000003c0: 1e63 b93d b71f 413e 0d41 0e3e aed2 993d
000003d0: 4897 473e 6b42 18bd 5ddb 383e e145 d53d
000003e0: 98f0 863e 8d97 1c3e 46a6 1f3e aded 0ebc
000003f0: d28c 063e 8776 7d3e 8721 4c3e 062e 333e
0.16129835 0.03922508 0.056033798 0.16578606 0.18105131 -0.03221155 0.12459986 -0.0048944065
-0.09778631 -0.033135056 0.14046405 0.16460231 0.08011583 0.1343903 0.007675615 -0.1980107
0.09674116 0.06356283 0.050227392 -0.096405365 0.1257091 -0.0008372816 -0.02703865 -0.05752171
-0.20893142 -0.0043098275 0.10963164 0.012201487 0.05878917 -0.061915454 -0.0079509895 0.2553909
-0.024919983 0.26853886 -0.090184614 0.026816154 0.33480865 -0.037460703 -0.05041196 0.11492229
-0.025988892 0.10773964 0.20080346 0.2206642 -0.050529044 0.058691267 -0.15252858 -0.00497271
-0.057944108 -0.041025486 -0.11830848 0.24120882 0.17377472 0.09998693 -0.037628997 -0.013722798
-0.15081856 -0.124023095 0.20350051 -0.14425257 0.10723123 -0.020279197 0.06712521 0.23501189
0.082708366 0.13859248 -0.13088274 0.11098821 0.2657128 -0.052986544 -0.22386429 0.11110612
-0.2633665 -0.060705747 -0.0417249 0.09800516 -0.12589803 -0.03247084 -0.23585862 0.12432981
-0.08711635 -0.08201784 -0.21682292 0.15386474 0.07079781 0.13300721 0.00986074 -0.10846681
0.08515246 -0.21166418 -0.21316665 -0.090889 -0.009521459 0.07928797 0.12689246 0.054151714
-0.008819462 0.23598017 0.06840247 0.057871796 -0.0021562495 0.1932445 0.13674028 0.09260507
0.21699315 0.25408974 -0.03991874 0.026820496 0.23303099 0.12501422 0.21539561 0.11516356
0.25165492 -0.08923588 0.35277066 0.1764988 0.2159815 0.045021933 0.22182167 0.1564051
0.16002418 0.20210387 -0.06830659 0.113616586 0.078279436 0.21885654 0.1909867 0.11013381
-0.08884397 0.13561468 -0.12480996 -0.15207292 -0.019071765 0.06442075 0.018031418 -0.02682688
0.23085429 -0.19242045 0.013898074 0.13214093 -0.1758531 0.035780113 0.13271517 0.07734291
-0.056326598 -0.054965615 -0.027475938 0.033231962 0.12295207 -0.018896211 0.11308483 0.15793501
0.18875508 -0.12112547 0.066531256 0.04711315 -0.044984594 -0.10401071 -0.027168076 -0.0902452
-0.02906831 0.05061793 0.33975425 0.067351185 0.19283058 0.04655928 0.03487438 -0.03930712
0.2749141 0.06715516 0.21205832 0.29238972 0.002535648 0.26495567 0.19668062 0.16247518
0.25484642 0.028249448 0.46396524 0.14911085 -0.040899593 0.009789039 0.03773588 0.018711388
0.17704903 0.34344825 0.07211318 0.06933499 0.28526562 0.028251871 0.123652466 -0.023970619
-0.07505785 0.20966595 0.24631053 0.06461573 0.019881546 0.09205549 0.17271803 -0.04211936
0.16794379 0.09448358 0.185513 -0.05499173 0.2074437 -0.089530185 -0.094054416 -0.011299061
-0.025409676 0.0027049177 0.24743582 0.14035916 -0.062384374 0.17290217 -0.20924531 0.21997948
-0.045384236 0.16749431 0.079033345 0.09465057 0.18013363 0.056294713 -0.1474865 0.09478334
0.17303334 0.18358988 0.28382048 0.062749974 0.239372 0.09515769 0.011635127 0.28320843
0.24716984 0.16805425 0.200379 0.08896669 0.115165606 0.20765744 0.1286433 0.19108956
0.09052108 0.18859755 0.13892002 0.07510887 0.19491303 -0.037172716 0.1805243 0.10413719
0.26355433 0.15292187 0.15590772 -0.0087236585 0.13139656 0.24752246 0.19934665 0.17498025

phi.convs.1.lin_rel.bias f4 [32]
00000000: 2c4e 013e 1a95 b23d 7c6c 21be e01f 6abd
00000010: a984 1d3e cf1b 323c 7d21 443e 91de 43bd
00000020: e0cf 463e 8550 10be d8f0 0fbe 64a5 f03d
00000030: 59f6 a83d 6299 0239 3fbd 67bd 6bf3 7f3d
00000040: ec13 9dbd fdcb 783d bfc6 2abe de88 293d
00000050: 9d7c 57bd 16ab 14be 12ac 2a3e 3ddf 4f3e
00000060: 0703 393e 4eb7 d4bd 9a26 ba3d 242c 93bd
00000070: 5c99 053e c8c1 2d3e 036b 253d 8f57 073e
0.12627476 0.08719845 -0.1576404 -0.057159305 0.15382637 0.010870888 0.191534 -0.047819678
0.19415236 -0.14093216 -0.14056718 0.11750296 0.08250112 0.00012454906 -0.056576964 0.062488
-0.076698154 0.060741413 -0.16677378 0.041390292 -0.052609075 -0.14518389 0.16667202 0.20300002
0.18067561 -0.10386525 0.09089394 -0.071861535 0.13046783 0.16968453 0.040385257 0.13216995

phi.convs.1.lin_root.weight f4 [32, 32]
00000000: 7321 103e cbee 54be 969a 153d d768 adbd
00000010: e70a 0a3c a85b 473c fa4b 12be e208 b93d
00000020: f9a1 e73d 9eb9 d4bd d5be 443d 4cd3 bcbd
00000030: 6e3c b4bd ac82 29be c477 073d 3a1c 82be
00000040: 6b51 9dbd 456b c63d 8189 41be 9610 31be
00000050: 8358 b63b f4a0 78bd 810a 8cbc 7dcc 13be
00000060: 1035 c53d 821f 2d3d f4ca 8bbd 85b6 c9bd
00000070: af06 38bd 40d9 de3d 8e87 053e 238d 973d
00000080: 9384 b03d 351c 3e3e 2d14 e0bd f112 133d
00000090: 4a9f 1bbc c856 babd e805 96be a113 853e
000000a0: 6bc4 65be 6552 c13d 8e11 f7bd de17 143e
000000b0: 313e 513e f25f d7bd f433 15be 5d1c 613e
000000c0: c8ef 18bd 7909 e33d 631a 393e 3559 aabd
000000d0: d526 d8bd 44b5 203e 0dcb 623e ac72 1cbd
000000e0: f739 9dbd 35fb 06bf 4ece 233d a9d1 8a3d
000000f0: 94cf 88bd afa4 e3bc 4cf4 e83d 8135 bc3d
00000100: aa60 a5bd aa86 6d3e 7707 42be 19f9 523e
00000110: 7247 623d 88b5 60bd b82d 54be 3994 0b3b
00000120: 5e96 26bd d42f 92bd 9339 42be 9d26 6f3e
00000130: 4008 053e 33f9 d8bc 4a07 46be 42cc b9bd
00000140: 9756 fa3d 9d48 95bd b158 6d3c 86a9 13bd
00000150: 1c57 3a3e 7bac 4c3d 32db a43d e201 d53d
00000160: ed1c 513b 0eb4 b9be 198c 5dbd fda6 013d
00000170: ca92 d0bc d8f0 fdbd 7213 433d e63b 7c3d
00000180: e42f 353e 157a f73b e91d 06bd 350d 063e
00000190: 47a3 483e c66e 023e ead1 5fbe f2a1 8b3c
000001a0: 8915 153e d21e 303c 44b5 babc 0ea6 7e3b
000001b0: 8e95 a3bd 5f95 6ebe 54ae 5fbc 84e9 d5bd
000001c0: 1287 8fbd 1a17 dd3c b681 b0be 4edb 24be
000001d0: 7a4f f33d 39b3 a1bd a5bd df3d b4d3 d1bc
000001e0: 4517 a33c 2a8f a83d bdf8 b33d 50b9 863d
000001f0: 19a7 26be 91ce 6dbc d608 a23d 9e37 8b3c
00000200: eacb 03be f6c1 f83d 68c5 4ebd 3f3b d83d
00000210: 9e86 383d 8add 5e3e 526f 863d 67c7 d73d
00000220: dc46 0a3e f3ac c33d 3729 2e3e 1b31 e4bb
00000230: b06c 2a3d 2361 e5bd ea62 183e 8259 23bd
00000240: aad7 493e 20df 93bd 97af 973e 42b9 2f3e
00000250: 2de9 b93d 46af 523e 7e95 a7bd 5efb 413e
00000260: 972a 503e f2e5 a2be 72b0 5fbd a386 adbc
00000270: 9547 823d edf3 903d 07f1 15be 1b0f 0abe
00000280: 1d94 b63d 13f0 b0bd db84 27be d024 67bc
00000290: be80 2b3e adac a63c 9b85 8abe c53a 3bbd
000002a0: 4c19 75bd 6cb1 353e 0d4e fa3d 12c5 903d
000002b0: 08b3 03be 1958 02be c1bb 24be 346e 853d
000002c0: 9c32 73be e9f1 053e b7c6 e0be f7b5 e5bd
000002d0: 5bb9 5dbb 3586 1ebe 5a94 f8bd 379e 413e
000002e0: 3a6f 9ebe 398a 1c3e d355 b1bd 80f3 a4be
000002f0: b115 23bc 8bb2 ed3d 532c f13d 82d1 293e
00000300: 397c eb3b ddd9 cd3c 7801 5c3c 3850 233e
00000310: e30a 4c3e e209 dabd ce22 66be 513b 3c3d
00000320: 3119 38be 883d e63d 3150 3b3e 407a eebd
00000330: 2883 41be 071e 543e a614 92bd 4e93 02be
00000340: 9bb9 1ebe 3da9 64bd be96 02bf 15d2 00be
00000350: 2d5b c7bc d0ce b9bb 486c c6bd 55f7 2d3e
00000360: 5610 0fbd d8f1 34bd d697 433e df97 f3bd
00000370: 9a0b e93d e86e d43d 9a72 fdbd 8390 12bd
00000380: 3c5f 4e3d c3ae a53d e5c2 28bd 856d 4e3e
00000390: beb4 94bd 5e73 65be 8d8c c5bd 909e fa3d
000003a0: a9ef 48bb aa27 fa3d 182a 713d 4562 24be
000003b0: 18f7 47bd 78af 2a3d beb7 2a3d f360 f5bd
000003c0: d9cb 75be 9351 303e 1181 9fbe 0e03 eabd
000003d0: 6e46 083e 0425 b0be f53d d2bd 16dc 373e
000003e0: 3f3c b0be 4759 ba3d 223f cb3d f4e5 b3be
000003f0: 6ca5 f9bd 824c d73d c652 a53d ad9b ac3d
0.1407526 -0.20794217 0.036524378 -0.08467262 0.008425451 0.012167849 -0.14286795 0.090348974
0.11310191 -0.10386966 0.048033554 -0.09219989 -0.088005885 -0.16553754 0.0330732 -0.2541216
-0.07681545 0.09688429 -0.1890011 -0.17291483 0.0055647506 -0.06070037 -0.017094852 -0.14433475
0.096292615 0.042266376 -0.068258196 -0.09849266 -0.04492825 0.10881281 0.13039991 0.073999666
0.086190365 0.18565448 -0.10941348 0.035906736 -0.009498427 -0.090985835 -0.2930138 0.25991538
-0.22438209 0.09439544 -0.12063895 0.1446223 0.2043388 -0.10516347 -0.145706 0.21983476
-0.03733805 0.11085791 0.18076472 -0.08317796 -0.105542816 0.15694147 0.2214777 -0.038195297
-0.076770715 -0.5272706 0.03999167 0.06778271 -0.066802174 -0.027788488 0.11374721 0.091898926
-0.08075078 0.23195902 -0.1894816 0.20602836 0.055243917 -0.05486062 -0.20720565 0.0021298064
-0.040670745 -0.07138029 -0.18967275 0.23354574 0.12991428 -0.026486015 -0.19338718 -0.09072162
0.12223547 -0.072892405 0.014486478 -0.036050342 0.18197292 0.049969178 0.08049621 0.1040075
0.003190811 -0.36270183 -0.054088686 0.031653393 -0.02546062 -0.12399453 0.047625966 0.06158056
0.1769405 0.007552395 -0.03274337 0.13090976 0.19593535 0.12737569 -0.2185742 0.017044995
0.14558996 0.010749536 -0.022791512 0.00388563 -0.0798751 -0.23299168 -0.013652403 -0.1044493
-0.070081845 0.026988555 -0.34473962 -0.16099283 0.11880393 -0.07895512 0.10924844 -0.025613643
0.019908557 0.082304314 0.087876774 0.06578314 -0.1627468 -0.014514581 0.079118416 0.016994294
-0.12870756 0.1214637 -0.05048123 0.10558175 0.045050256 0.21764198 0.065642014 0.1053608
0.13503593 0.09554472 0.1700791 -0.0069638616 0.04160756 -0.11200168 0.14881483 -0.039880283
0.19711176 -0.07220292 0.29626152 0.17160514 0.09077678 0.20574674 -0.0818281 0.18943545
0.20328747 -0.3181606 -0.05461163 -0.021182364 0.063613094 0.07077775 -0.14642726 -0.13482325
0.08914969 -0.086395405 -0.16359274 -0.014107898 0.1674833 0.02034601 -0.27055058 -0.045710344
-0.059838578 0.17743462 0.12221918 0.07068838 -0.12861264 -0.12728919 -0.16087247 0.0651516
-0.23749775 0.13080563 -0.43901607 -0.11216348 -0.0033832404 -0.15480883 -0.12137671 0.1890801
-0.30944234 0.15287103 -0.08658948 -0.32217026 -0.009953902 0.1160632 0.11776032 0.16583827
0.0071864394 0.0251283 0.013428085 0.1594857 0.19926028 -0.10646416 -0.22474214 0.045955006
-0.1797836 0.11242205 0.1829231 -0.11644411 -0.18897688 0.2071458 -0.071328446 -0.12751505
-0.1550049 -0.05582546 -0.51011264 -0.1258014 -0.024335468 -0.005670406 -0.09688622 0.16988881
-0.03492769 -0.044175953 0.1910089 -0.118942015 0.11379166 0.10372716 -0.12375374 -0.03578235
0.05038379 0.08089974 -0.04120149 0.20158966 -0.07261036 -0.2240729 -0.096459486 0.12237275
-0.0030660427 0.122145966 0.058878034 -0.16053112 -0.04881963 0.041671246 0.041679136 -0.11981382
-0.24003543 0.17218618 -0.31153157 -0.11426364 0.13308117 -0.3440324 -0.102657236 0.1795505
-0.34420964 0.090990596 0.09924151 -0.35136378 -0.12189755 0.105126396 0.080724284 0.0842813

phi.fc.weight f4 [32, 32]
00000000: 1613 013d 84c0 7c3e 12b5 853e 4b4b 34be
00000010: 68be 38bd fc72 1dbe ce02 49be 5898 5aba
00000020: 92e9 5c3e 59ec a13d 74de 3abe 9219 05bd
00000030: be4a 32be 1594 e93d bc8d 4f3d 9624 3fbe
00000040: 405f c4bd 6e43 ef3d 2df2 483c 5783 013e
00000050: b46f 6bbe 561a 4abe 80c3 ac3d d71c 3cbd
00000060: 8c78 1e3e e913 86be 8841 43be 56c3 6a3c
00000070: 296a a8bd 3239 aa3c 8e04 cbba e63b 253e
00000080: 0e3f a23c f710 603e e991 2a3e dcaf 4ebd
00000090: 70b7 363e c782 90bd 519a b9bd ba30 b5bd
000000a0: e7b6 773e 1a17 a13d fca5 3f3d a1b4 a73d
000000b0: f980 783c 5895 2f3e a999 44bd defe 96ba
000000c0: 6b1a a23d e7e1 93bd 3e7b 4d3d c52a 02bd
000000d0: 2078 4fbe 7c22 6cbe 4cb8 3c3e 96d6 023e
000000e0: b3c0 d73d fde5 6cbe d4e5 e23c 69a4 ec3d
000000f0: 5312 53be 1149 3e3d ceea 8abc a873 273e
00000100: a807 54bd 68ca 29be 4e73 fcbd 1ae0 9f3d
00000110: 2928 04be 8034 ccbd 2c38 88bd 3d51 683e
00000120: a617 c0bc 5cc8 163e e12f c0bd a9c6 cfbc
00000130: 9246 b4bc 790e 7b3c e80d 3e3e 1850 1f3e
00000140: 0941 3f3b 3d16 113e 9699 613e 95a0 ca3d
00000150: cc59 843e 8ad9 8cbd 4bb5 7abe 99da 363e
00000160: 002b 3a3e c482 7d3d 0603 c43d 2a1e f83d
00000170: a101 2c3e 44df 163e 8284 483e 1989 273c
00000180: ccda 27be a688 a0bd 0e98 70be fdbc 963e
00000190: c006 45be 3a30 a83e ea76 a5bd c8fd 903e
000001a0: 6e94 5c3c a841 3f3e 434d 89bd 094a c13a
000001b0: f325 12be 4524 d4bd 5a99 d73d 7f2f 483d
000001c0: 0f21 11be 39ed f8bd 20d1 443d 4617 bd3d
000001d0: c503 f9bc 58ba 143e ae1b 83be 2577 d0bd
000001e0: d541 11be 656b 8e3e b500 a6bd 410a 7d3c
000001f0: a637 d2bd 93eb 05be 949c aebd 0710 43be
00000200: fde3 b3bb 750e 923e 228b 473e 0f1e e23d
00000210: 18da 053e 53ec 453e fb3d 973d 9c42 013e
00000220: b470 823e b074 4fbd 8c13 ddbd 2419 82be
00000230: f7a6 0dbe f9eb ac3d 7e11 1dbd cf10 41bd
00000240: e593 d6bd 01bb 84be 895a 433e 14d3 5d3e
00000250: fe55 0cbe dd30 84bc b116 adbd d601 24be
00000260: f749 863d dd1f 3a3c a694 5d3d 7fe7 1f3d
00000270: 2727 86be e31f 003e 250b 4abe 1315 893d
00000280: 2079 0b3e b6fb 31be 0814 8cbe 5312 8a3e
00000290: 23fb 42be 6d83 f33d d22b 1dbc afbe 623e
000002a0: b251 64be 3c2b 8fbd 59c2 f9bd b810 8c3e
000002b0: 2813 783e 87a4 a33d 8d86 333d 8ff8 013e
000002c0: 1722 8cbc c718 f3bd 80d5 503e 1ff2 8f3b
000002d0: 6ee5 993d 441a e53d 8f84 e9bd daa1 953d
000002e0: ab3a a93b 161b aa3d 529c 3bbd 8b14 d8bd
000002f0: d754 c8bc 5fce a73c 6fde 253e d0cc a53d
00000300: e0d6 55bd c2a3 4a3e c661 9d3e b1b1 2d3d
00000310: dc08 593e 055c 29be 8bbc 7bbd c13e 7fbe
00000320: 357a 533e dffa 61be 8775 50be 1db5 6fbe
00000330: 151f 23be 79c9 d4bb 70ee a5bc 2540 3dbe
00000340: d4a2 243b b11a 32be 9060 0cbe c167 023e
00000350: 7007 91bc 001f 913d 592f 45bd d514 a43d
00000360: 0ba6 0bbd 9e55 eebd fb12 bdbd 9a33 a13c
00000370: 5faf 883d 0d93 f93d d92e 4f3b de06 2f3e
00000380: ac23 b7bb 1268 b4bc 8902 5a3e 2382 b6bd
00000390: 9044 6e3a 6764 5cbe 8179 adbc dffb 91be
000003a0: 3ab8 be3c 9ee7 89bd fdbe eebc e664 42bb
000003b0: 54c6 57be 9d9d 8dbd 3aa4 8ebd 8647 84be
000003c0: 3b2c ef3d 6abb d63d 8f13 ecbd a591 983d
000003d0: ef5b c13d 5f5b f3bd b9cb 583e 0c0a 133e
000003e0: e6e6 1ebd cc97 d9bb b2dd d1bd df42 343e
000003f0: 2fa6 a4bd de1e 173d 22a3 26be 381d 10bd
0.031512342 0.24682814 0.26114708 -0.17606847 -0.04510346 -0.15375894 -0.19629976 -0.0008338741
0.21573475 0.07906408 -0.18248922 -0.03249509 -0.17411324 0.114051975 0.050672278 -0.186663
-0.0958848 0.11682783 0.01226477 0.12647758 -0.2299183 -0.19736609 0.08435726 -0.04592594
0.15475672 -0.26187065 -0.19067967 0.014328798 -0.082233734 0.020779226 -0.0015489028 0.1613613
0.019805457 0.21881472 0.16657223 -0.05046068 0.17843413 -0.07056194 -0.09062637 -0.088471845
0.24190865 0.078657344 0.046789154 0.08188749 0.015167468 0.17146814 -0.047998104 -0.0011520048
0.07915195 -0.07220822 0.05016636 -0.03177907 -0.20260668 -0.2306003 0.18429679 0.1277717
0.10534801 -0.23134609 0.027697481 0.11554796 -0.20612459 0.0464564 -0.016957667 0.16352713
-0.051765114 -0.16581118 -0.1232668 0.07806416 -0.12905945 -0.09970951 -0.06651339 0.2268724
-0.023448776 0.14724869 -0.09384132 -0.025363283 -0.022006307 0.015323275 0.18559992 0.15557897
0.002918305 0.1416864 0.22031245 0.0989391 0.2584976 -0.0687743 -0.2448322 0.17856826
0.18180466 0.061892286 0.09570889 0.12115128 0.16797496 0.14733607 0.19581798 0.010225558
-0.16392058 -0.078385636 -0.23495504 0.29441062 -0.19240856 0.32849294 -0.08079322 0.2831862
0.013463123 0.1867739 -0.0670419 0.0014746796 -0.14272289 -0.1035848 0.10527296 0.04887342
-0.14172767 -0.12154622 0.048051 0.09232955 -0.030397305 0.1452421 -0.25607055 -0.10178975
-0.14185269 0.2781631 -0.081056036 0.015444339 -0.1026452 -0.13078146 -0.08525959 -0.19049083
-0.005489825 0.28526655 0.19486669 0.110408895 0.13071477 0.19328432 0.07384869 0.12623066
0.2547661 -0.05064839 -0.10794744 -0.25409806 -0.13833223 0.08443446 -0.03834676 -0.04713517
-0.104774274 -0.25923923 0.19077505 0.21662551 -0.13704678 -0.016136581 -0.08451594 -0.16016325
0.065570764 0.011360136 0.05409684 0.03903913 -0.26201746 0.12512164 -0.19730814 0.06693473
0.13620424 -0.17381176 -0.27359033 0.26967105 -0.19041114 0.11890302 -0.009592967 0.22143053
-0.2229679 -0.06990668 -0.12195272 0.27356505 0.24226058 0.079903655 0.04382949 0.12692474
-0.017106099 -0.1186996 0.20393944 0.0043928768 0.07514463 0.111866504 -0.11402237 0.07306261
0.0051644645 0.083059475 -0.045803376 -0.10550793 -0.024454517 0.020484148 0.16198133 0.080957055
-0.052206874 0.19789031 0.30738658 0.042405788 0.21194786 -0.16539009 -0.061459105 -0.24926282
0.20652087 -0.22068356 -0.20357333 -0.23408933 -0.15929826 -0.006493744 -0.020255297 -0.184815
0.0025121467 -0.17392994 -0.1370871 0.12734891 -0.017703742 0.07085991 -0.048140857 0.08011786
-0.034093898 -0.11637424 -0.09232136 0.019677926 0.066740744 0.12186251 0.0031613617 0.17092463
-0.005588969 -0.02202228 0.2129003 -0.0891154 0.0009089196 -0.21522675 -0.021176102 -0.28512475
0.023281205 -0.067336306 -0.029143805 -0.002966219 -0.2107175 -0.06914828 -0.069649175 -0.25835818
0.11678358 0.10484965 -0.11527168 0.074496545 0.09441363 -0.11882662 0.21171464 0.14359301
-0.03879442 -0.00664041 -0.10247363 0.17603634 -0.080395095 0.03689467 -0.16273168 -0.035184115

phi.fc.bias f4 [32]
00000000: 1ada 0dbe 96fe aebd d14e 1e3e 78b4 80bd
00000010: ac30 9c3d 4b2a fb3d 583c f3bd 4493 edbd
00000020: 2793 1dbd bc6b 49bc 2178 de3d c586 8d3d
00000030: 1d02 8ebd ccf0 763d 8077 a3ba a1d4 f33d
00000040: 83ff 4bbe 80af 46bd 90a3 b8bd cc0d e63d
00000050: 84b4 603a 38b8 4a3d e997 683d 2586 01be
00000060: a92d 393e 0126 83bd d936 48bc 8881 033c
00000070: bd1f 453e 7413 4fbd a7e1 ae3c d171 473d
-0.1385273 -0.08544652 0.15459754 -0.06284422 0.07626471 0.12263926 -0.11876744 -0.11600354
-0.038470414 -0.012293752 0.108627565 0.06910471 -0.06933997 0.060288236 -0.0012471527 0.1190579
-0.19921689 -0.048507214 -0.09015572 0.112331 0.0008571821 0.04949209 0.056785498 -0.12648828
0.18083824 -0.06403733 -0.012220108 0.008026488 0.19250388 -0.05055566 0.021347834 0.04869253

att_q_net.weight f4 [32, 32]
00000000: b1d0 da3e c8e0 9a3e 81a4 e4be e665 273e
00000010: 28af 043e 74e7 96be e5e5 723e 30f3 803e
00000020: e8df 19bd 711c c7be 092e c03e e5e0 8c3e
00000030: 4a06 293e 4f05 9ebb 6bc1 82be efe6 d53d
00000040: 49da df3e a56a 6bbe 9ae6 713e 9eba 7abe
00000050: 689a 9ebe b0e7 af3e d814 21bc aa09 ed3d
00000060: 05d2 693e c185 bd3d 0b33 213e dac4 ec3d
00000070: 562b 5c3e d8fa 97be d565 5dbe d4ac 95be
00000080: 6132 a83e c7d8 9f3d f8ae eabe ed26 643e
00000090: 2587 c03e 925c 30be 90b3 c73d c821 363d
000000a0: 5067 cbbe 3c43 a9be e618 963e 6b49 e33b
000000b0: af2a 913e 1037 4abe 2d6f 92be c11b 2bbd
000000c0: 6098 00bf 29d3 87bd 3b9a 0bbe 9164 20bf
000000d0: 892d 41be b96b 583e 631c 8fbd 623f e03e
000000e0: 1eac f03e 26ea a13e fa50 be3e 4b8c 1c3f
000000f0: 2ea9 873e f286 d1be 4d07 31bf 2562 10be
00000100: 7bac 7c3d 26dd 49be 8956 16be 594b 043e
00000110: c62b 063f 61d0 48bd 80b0 5b3e f0e1 7fbc
00000120: 266c 22be 464a 05be b4b0 8d3c 90e4 343b
00000130: 5200 da3e f82d a3be 695a abbd e41e a53d
00000140: 09a5 51bf 5ba8 513e 3968 e9be 1e6b a7be
00000150: fe07 54be a90b 92bc a3dd 13be 9bb4 743e
00000160: 0e84 d03e f85a eabc e13f 1f3e 4249 023f
00000170: 5f2d a63e 253a 15be bcca e6be 8283 7e3d
00000180: 1462 28be f920 cc3b b448 a0be e063 c73e
00000190: d1b0 a83e af67 20be 5f73 093e 553f 11bd
000001a0: a874 c1be a11b 91bd feae 133e b11b 83bd
000001b0: 480f 863e ad2f f0bd fc99 85be f30d 9fbd
000001c0: b9e0 22bf ebd5 85bd b3f7 e6be 4d6f 77be
000001d0: bdcb 32be 27a3 d23d ccd1 9abe 7233 cfbd
000001e0: b021 da3d 9086 f1bd 430b 0b3e 9883 ce3e
000001f0: 3cd5 503e a70a 46be 3caf ecbe 64d9 803e
00000200: 3d60 0d3e 024d 28be 3c71 d8be a398 813e
00000210: c72b 0f3f 2da9 9dbd 7744 9a3e edfa 3dbe
00000220: 7e07 91be 164e ddbd f846 b93d 182c f23c
00000230: 03c1 b43e ed2d 7ebe 7d09 5bbd 3c5b 073d
00000240: ff7f 40bf 3d93 353e c108 f0be 16a1 9fbe
00000250: 8a55 05bb 2a92 a13d 57ac 1ebe 5997 e53c
00000260: fa9f c23d 7c40 11be 9a44 933e 63da 273f
00000270: 6079 e23e e529 d5be edcb d7be 7f58 ad3d
00000280: 0b7f 923e 4197 393e 7252 30be 21c4 563e
00000290: 92d3 1abe 915a 0dbe 54b4 e0bc c409 333e
000002a0: 8932 043d bb68 513b c515 723e 819d b53d
000002b0: a186 abbd 2e6f 453e 7aeb e43c d4c6 9dbd
000002c0: fab7 3d3f c237 9fbe 8f8c 923e b3e2 833d
000002d0: 31d3 75be 86d0 8c3e 6769 0f3e ff54 903e
000002e0: 7982 783d 575f cc3d 3077 0bbe 24e5 f6bd
000002f0: f593 99bd 4ba5 ef3c 1eac 85bd 4092 0ebf
00000300: a874 00bb 6c17 e2bc baad c83e 249e c2be
00000310: 2aa6 ccbe 0ae1 24be fb88 08bd b242 b23e
00000320: 019e b03e 8ba0 ab3e 4b97 21be e7bf 993e
00000330: 180b a3be 0af7 853e 408a 1abd 744c e43c
00000340: f7ad 453f 6d46 433d 69db b93e d64c e53e
00000350: 576d 953b d058 3f3e bfc7 913e 0eaa afbe
00000360: 8e2d edbc b263 e53d 7472 1cbe 5ce6 02bf
00000370: ebab 25be ed1a d13e a964 d83e a125 ff3d
00000380: 1743 74be 0b2f 0d3b d90d ea3e 522c 69be
00000390: 93d2 23bf 8d3e 3b3e 3a4a a03b eedb 0a3e
000003a0: 1e5c d83e ab3b 5b3e 071c 10be 9f32 d7bd
000003b0: 85d9 dabe 85dc 773e a8bf 9f3e 4927 723d
000003c0: 2a5d e83e b7c9 8c3e aa4d d13e daa9 f53e
000003d0: 235d 323e 8f61 8cbe 275b 233d e675 65be
000003e0: f19e efbe 4eb0 8a3c dbdf c7bd fbe4 a8be
000003f0: a02a 00bf 2d27 0d3f a1dc d83e 695a 5f3e
0.42737344 0.3024962 -0.44656757 0.16347465 0.12957442 -0.2947346 0.2372051 0.25185537
-0.03756705 -0.38888887 0.37535122 0.2751533 0.16506305 -0.00482241 -0.2553819 0.10444438
0.43721226 -0.229899 0.23623124 -0.24485251 -0.30977178 0.3435645 -0.00983163 0.11574109
0.22834022 0.09254027 0.15742128 0.11560984 0.21500906 -0.29683566 -0.21620877 -0.2923342
0.32850936 0.07805019 -0.45836616 0.22280474 0.37603107 -0.17222813 0.09751046 0.04446581
-0.3972726 -0.33059108 0.2931587 0.0069362423 0.28352877 -0.19747567 -0.28600445 -0.041774515
-0.50232506 -0.066320725 -0.13633053 -0.6265345 -0.18865027 0.21134843 -0.06987836 0.43798357
0.47006315 0.31623954 0.37171155 0.6115157 0.2649626 -0.40923268 -0.69151765 -0.14099939
0.061687928 -0.19713268 -0.14681448 0.12919368 0.5241054 -0.04902685 0.21454048 -0.015617833
-0.15861568 -0.13016614 0.017296173 0.0027602054 0.4257837 -0.3187101 -0.08366854 0.080625325
-0.8189245 0.20474379 -0.45587328 -0.3269891 -0.20706174 -0.017827826 -0.14440016 0.2389702
0.4072575 -0.02860783 0.15551712 0.5089303 0.3245649 -0.14572962 -0.4507655 0.062137134
-0.16443664 0.0062295166 -0.31305468 0.38943386 0.329474 -0.15664552 0.13422917 -0.03546079
-0.37784314 -0.07085348 0.14422223 -0.06401766 0.26183534 -0.117278434 -0.26094043 -0.077663325
-0.6362415 -0.06534942 -0.45110855 -0.24163552 -0.17460532 0.10285025 -0.30238187 -0.10117234
0.10650957 -0.11793244 0.13578515 0.40334773 0.20393842 -0.19340001 -0.46227443 0.25165856
0.13806243 -0.16435626 -0.4227389 0.25311765 0.55926174 -0.07698283 0.3013036 -0.18552752
-0.2832603 -0.10805909 0.09046739 0.029562041 0.35303506 -0.24822207 -0.053475846 0.033045992
-0.75195307 0.17731948 -0.4688168 -0.31177586 -0.0020345175 0.07889207 -0.1549543 0.02802627
0.09503169 -0.14184755 0.28763276 0.65567607 0.44233227 -0.41633525 -0.4214777 0.08464145
0.2861255 0.18124105 -0.1721895 0.20973255 -0.1511977 -0.1380408 -0.027429737 0.17484194
0.032274757 0.0031953293 0.23641117 0.08867932 -0.08375288 0.19280693 0.027944315 -0.07703939
0.7410885 -0.31097227 0.28622863 0.06439724 -0.24006344 0.2750284 0.14005052 0.28189847
0.060671303 0.09979122 -0.13619685 -0.12055424 -0.07498924 0.029253623 -0.065269694 -0.5569191
-0.0019600783 -0.027599059 0.39195043 -0.38011277 -0.39970523 -0.1610147 -0.03333376 0.3481651
0.34495547 0.33520922 -0.1578037 0.30029222 -0.318444 0.26165038 -0.0377295 0.027868487
0.77218574 0.047674585 0.3630021 0.44785184 0.0045601535 0.18686223 0.28472707 -0.3430943
-0.028952386 0.11200656 -0.15278035 -0.5113275 -0.16178863 0.40840855 0.42264298 0.12458349
-0.23853718 0.0021542932 0.4571369 -0.22770813 -0.63993186 0.1828558 0.004891661 0.13560459
0.4225778 0.2140948 -0.14073192 -0.10507702 -0.4274408 0.24205215 0.3120091 0.059119496
0.4538358 0.27497646 0.40879565 0.4798115 0.17418341 -0.2741818 0.03988185 -0.22408256
-0.4680095 0.016929772 -0.09759494 -0.32987198 -0.5006504 0.551379 0.42355826 0.21811832

att_q_net.bias f4 [32]
00000000: 3540 a2bd ed8a 053d 158c 213d 4c3e 01be
00000010: 0553 abbd 4916 ac3b 54de 973d 7145 31be
00000020: a8db 07bc 34c4 d0bd 0841 133e c2ab 733d
00000030: 0cf6 31be 19d7 063d c7e4 87bd c4ab b8ba
00000040: 0a9a 91bc 2cc7 4c3d 5c5c 0c3e 6008 81bd
00000050: dfda 28be 4ad3 b03d 581c 0d3e ae32 4e3b
00000060: c05d 813b 07eb f4bd d9ea d4bd 6411 eebd
00000070: 72bf 793c 3590 c6bc d40b 99bd 3eaa f2bc
-0.07922403 0.032603193 0.039440233 -0.1262142 -0.08365444 0.00525168 0.074154526 -0.17311646
-0.008292116 -0.10193673 0.14380276 0.059489973 -0.17379016 0.032919977 -0.06635433 -0.0014089276
-0.017773647 0.049994633 0.13707107 -0.063004255 -0.16489743 0.0863405 0.13780344 0.0031463313
0.0039479434 -0.119588904 -0.10396356 -0.11624411 0.015243398 -0.024238685 -0.07472959 -0.029622193

att_k_net.weight f4 [32, 32]
00000000: 9f47 d1bd a0b6 933e 1463 1a3e 83e6 b1be
00000010: 0350 ca3e d6a9 88bd a93c 233d e8e9 8abd
00000020: c4d7 f2be abfa 903e 4c1a 05be 9031 f1bd
00000030: d1e3 90bd 9503 993d 9716 cdbe 1fdd 5a3e
00000040: 5963 01bf bb8b ddbe aeaa a7bd e871 533e
00000050: 614f 70be bf78 d7bd 87b8 47be 8b12 31be
00000060: 939c 6bbe 184c bdbd 6536 303d 4583 47be
00000070: e70f cd3e add0 ac3e ad9b 263d 33f1 c93e
00000080: 2042 983e 443d f73e fc53 253d bbc4 02bd
00000090: e125 263f 2f89 95be 83ee db3e 94db c23d
000000a0: 96d2 aabe 2c4a 7ebd e654 aa3e 48ac 3dbc
000000b0: 5753 c83d 3dc0 13be be0a 8ebe e29d ac3e
000000c0: 7189 adbe fac2 d7be 7bb6 2b3e 48bd df3d
000000d0: b212 d9be becc 753e 8fa4 92be ed6c b1be
000000e0: 2edd 97bc eafc 703e 4bb5 c83e cb3d 1ebd
000000f0: b127 ba3e a484 383e 6fe9 f83d 6352 923e
00000100: 63a1 fb3e bb6d 623e fa39 623d d26c ee3d
00000110: f3ee 133f fd74 bebe 0bdb c03e e644 073e
00000120: 64f2 0cbf 027b 5abe 384b 063f 3ee9 9f3e
00000130: 9ec4 b03e 91c2 85be 3784 9abe 3d0a 903d
00000140: 6482 82bd 40fd a2be ef96 d33e a24e 89bd
00000150: 0b24 d1be aee0 963e 8435 e7be 0d36 14be
00000160: 4957 083d c668 843e b9d1 e33e cf99 663d
00000170: efbc 913e f837 023d 03b7 80bb 3d03 b6ba
00000180: 67e1 b83e 7292 c13e c69a 09be a977 8d3d
00000190: 42a4 083f d720 00be 6c45 973e a19c 773e
000001a0: 1f16 d9be 3b15 48be eb88 8d3e fed1 123e
000001b0: 5a17 853e 6bd0 ddbe c6c7 f5be 84a3 233e
000001c0: 7eaf 3bbd af23 01bf 353e 223e 9ba4 bd3c
000001d0: 6fa1 70be 1871 083e 4a88 a6be 9e5f 7bbd
000001e0: a2ed 973e ce2e 983e 3351 d93e 800e 963e
000001f0: 8bab 853e 60f3 e3bc 5d26 72be c919 de3d
00000200: 6d6f 853e b5cd ff3e f458 15bd ff97 56bc
00000210: 1469 913e 7435 08be 8852 3a3e 18af a93e
00000220: 4d58 fabe 5c7f b3be a913 033f 80a2 9c3d
00000230: e804 fa3d a719 b9be f65e e8be c2d4 b2bc
00000240: 3566 82bd 2954 5fbe 7c4c eb3e 0d4f 2e3d
00000250: 3bca f8be a75a 383e c4a8 a0be 8ca0 44bd
00000260: 9c93 253e 3217 6e3e 1180 fc3e eb19 413a
00000270: fc0a c83e fdf0 bbbc c43f 21be 8c75 27bd
00000280: 04f2 58be fb93 b4bc f5a7 ee3e 86fb e7bd
00000290: 94f6 0abe 1b32 503e 4c2d b5be c46e 83be
000002a0: b0a9 fbbd 6f1c c03e 15f2 b4be 8a0b 90be
000002b0: cd36 58be 5077 c23e 24b3 5e3d a99a c53d
000002c0: a02b 85be 4d19 f5bd 2c26 d0be 40b1 ec3e
000002d0: 697a b83e 23c8 8cbe d3af 813d 0609 a3be
000002e0: f0f0 dcbe 2300 76be df99 8abe d7d2 dabe
000002f0: 30d8 bf3d 0af6 b83e e521 043f 2326 8c3e
00000300: a640 5cbe 7d2a 74be 5e4b ae3c ce49 46bc
00000310: 21a9 bfbe fde2 073e c0c7 02bf f8eb 93be
00000320: 73a4 ab3e b7fb 9f3e e2f5 00bf 57fb c4be
00000330: fc96 9fbe 8c20 9c3e 212a 903e 6f8b 8ebe
00000340: d279 293e eda8 a53e 0eda e7be 03d4 ba3c
00000350: 169a 1d3f e646 eabe 606e 773e aa51 653e
00000360: ba5f 02bd b294 c0be d037 0dbf 4db5 12be
00000370: b62c 39be 5791 773d 770f 4ebd d4d8 4bbe
00000380: c8e2 a6be 4cb6 00bf 8d16 52be a153 833e
00000390: 6d95 d1be a638 af3e 658b 99be cbde d83b
000003a0: 749e 113f 61d9 323e 2b3c 4dbe 82f1 72be
000003b0: 8353 90be 28cf 963d cf9e dc3e 7ab6 f83c
000003c0: def0 603d 6e55 b13e 4d5f 65be 7d81 53be
000003d0: 708d c23e 31e9 94be e119 ce3e bd31 1c3e
000003e0: 8761 5fbd 0a41 95be 9462 66be a928 f3bd
000003f0: faf6 b0be 569d 693d c217 94bd 5777 aebe
-0.10218739 0.2885027 0.15076858 -0.3474618 0.3951417 -0.06673019 0.039852772 -0.06782895
-0.4743024 0.28316244 -0.12998313 -0.117770314 -0.070747025 0.07471386 -0.40056297 0.21373414
-0.5054222 -0.43270668 -0.081868514 0.2064892 -0.2346778 -0.10521077 -0.19503985 -0.1729223
-0.23008947 -0.09243029 0.043020625 -0.19483669 0.40051195 0.33752957 0.040675808 0.39441833
0.2973795 0.4828893 0.040363297 -0.031925898 0.6490155 -0.29206225 0.42955408 0.095145375
-0.3336379 -0.062082455 0.33267897 -0.01157672 0.09781521 -0.14428802 -0.2774257 0.33714205
-0.33893922 -0.42140943 0.1676883 0.109247744 -0.42397076 0.24003884 -0.28641173 -0.34653416
-0.018538084 0.23533979 0.39200816 -0.03863315 0.36358407 0.18019348 0.12153899 0.2857848
0.49146566 0.22112171 0.055231072 0.116418496 0.5778648 -0.3719863 0.37667117 0.13209876
-0.5505736 -0.21335986 0.52458525 0.31232637 0.34525007 -0.26125005 -0.30178997 0.07033203
-0.06372526 -0.3183384 0.4132609 -0.06704451 -0.4084781 0.29468292 -0.45158017 -0.14473744
0.033286367 0.25861186 0.44495943 0.056299027 0.28464457 0.031791657 -0.0039280667 -0.0013886463
0.36109468 0.3780704 -0.13437948 0.06907589 0.5337564 -0.12512527 0.29545152 0.24180843
-0.4239969 -0.19539349 0.27643523 0.14337918 0.25994378 -0.43323073 -0.48003978 0.15980345
-0.04582166 -0.50445074 0.15844043 0.023149779 -0.23499082 0.13324392 -0.32525855 -0.061370485
0.29673487 0.2972321 0.42444763 0.29307938 0.2610744 -0.027826011 -0.23647447 0.10844762
0.26061574 0.4996163 -0.036461785 -0.013097762 0.2840048 -0.13301641 0.18195546 0.33141398
-0.48895493 -0.35058105 0.51201874 0.07648182 0.12207967 -0.36152384 -0.4538495 -0.021829966
-0.06367151 -0.21809448 0.4595679 0.042555857 -0.4859179 0.18003331 -0.31378758 -0.048004672
0.1616959 0.23251036 0.49316457 0.0007366228 0.3907088 -0.02294206 -0.15746981 -0.040883586
-0.21186072 -0.022043219 0.46612516 -0.11327271 -0.13570625 0.20331614 -0.3538612 -0.25670445
-0.12288225 0.37521693 -0.35340944 -0.28133804 -0.21114655 0.37981653 0.05437006 0.0964864
-0.26009846 -0.11967716 -0.40654123 0.4622898 0.36030892 -0.27496442 0.06332364 -0.31842822
-0.4315257 -0.2402349 -0.2707052 -0.42738983 0.09367406 0.36125213 0.5161422 0.27372846
-0.21509036 -0.23844333 0.021276172 -0.012102557 -0.37433723 0.13270183 -0.51086044 -0.28890967
0.33523902 0.3124673 -0.5037519 -0.38473007 -0.3116988 0.3049358 0.28157142 -0.27840754
0.16550377 0.32355443 -0.4528355 0.022806173 0.6156324 -0.45757216 0.24163198 0.22394434
-0.031829573 -0.37613446 -0.5516329 -0.14326973 -0.18083462 0.06044134 -0.050307717 -0.19906932
-0.32594895 -0.5027816 -0.20516415 0.2564974 -0.40934315 0.34222907 -0.29989162 0.006618356
0.56882405 0.17465736 -0.20042484 -0.2372494 -0.28188714 0.07363731 0.4308991 0.03036045
0.05491721 0.3463549 -0.22399636 -0.20654865 0.37998533 -0.2908416 0.4025412 0.15253349
-0.05453637 -0.29151183 -0.22498542 -0.1187299 -0.34563428 0.057034813 -0.07231094 -0.34075424

att_k_net.bias f4 [32]
00000000: 295b 363e 4ca2 843c b839 01be 91a3 0cbe
00000010: 41e1 83bc b0ec c83e 9304 c63c afc4 b9bd
00000020: 5fa7 323e 45cc 823d 194d 6ebd 5edf 5a3e
00000030: 2b4b 243e 7f71 ac3d d10d 313e 17e4 45bd
00000040: 425a 17bd d344 d23d 13a0 f2bd e7c1 7ebd
00000050: b8af a2bd 3f51 07be 6fad b53b d28a 44bc
00000060: 6996 a4bd 37bc d33d 5745 96bd 074c 0bbe
00000070: 1698 623d 8745 223e 0d07 253e c06b 1c3d
0.17808212 0.01619067 -0.12619674 -0.1373427 -0.01609862 0.39243078 0.024172103 -0.090707175
0.1744666 0.063866176 -0.058178995 0.2137427 0.160443 0.08420085 0.17290427 -0.048313227
-0.03695131 0.102670334 -0.11846938 -0.06219664 -0.07943672 -0.13214587 0.0055443565 -0.011995988
-0.08036501 0.103386335 -0.07337444 -0.13603221 0.05532082 0.15846835 0.16115971 0.038188696
